homework3/network_data/biases_0.npy (npy, 928 bytes, 1 tensors)

array f8 [100, 1]
00000000: b172 0c80 d379 cfbf ca0b 4855 85be ebbf
00000010: 3ff1 6a4a 364d efbf a363 464c 3c83 e0bf
00000020: ead6 e157 2c14 f3bf 6069 7a88 99d4 e3bf
00000030: 9b25 8a87 8139 e9bf 70b7 278f d58a d7bf
00000040: 6bd8 d446 fe19 e93f 7ac7 192e 7ebf 00c0
00000050: 0849 28d4 d316 b7bf bb80 4c79 b197 b93f
00000060: 6bc2 ec59 73e0 f0bf 4cb7 8b7b 16dc f6bf
00000070: 0ecb 41b6 3dcf c9bf df2e 36b5 2bd1 05c0
00000080: 8dcf d8c9 5c91 e1bf a474 7519 527f fabf
00000090: dfdc a383 c7cd f6bf e153 1864 70ef e5bf
000000a0: f919 63ee 5df3 ecbf 7bc7 fd7d 83a2 ebbf
000000b0: e690 d6d8 ffab c9bf e6d4 14cf 1efb c7bf
000000c0: 2680 03e4 3061 e5bf 059f 1183 5287 dcbf
000000d0: c92b 2832 8e9f debf 3969 28a1 acd9 efbf
000000e0: 76ac 3cc5 5ddb f3bf 5464 233e 83c0 883f
000000f0: cfdf afc4 eae3 b83f c003 d4ce ad21 01c0
00000100: 16f7 f825 7e4d 93bf 8d2b 820a eb96 e8bf
00000110: af69 3102 f852 eabf 952d 292d 7dcc f3bf
00000120: 1bff 8b40 4b63 923f 792b 4cb3 e201 f9bf
00000130: 6647 0f2a 4326 d63f bc0b 7e45 581b 0740
00000140: 82d8 e51f 1e60 e0bf a93a 07bd 1363 e33f
00000150: 6cc8 d6fd 847d 0040 bd5a 3e8e 202d efbf
00000160: b5f6 6754 aaed e9bf 863c ae4f 20b3 e1bf
00000170: 6f00 a34e 2deb c33f 83b9 ed11 8ed9 f03f
00000180: 00e4 483c f09e d13f acab 36ed de55 f4bf
00000190: aed8 84ea 3f84 d33f 44c9 1402 1862 f03f
000001a0: ca66 e8f0 8dea f1bf 429a fd9d e276 d43f
000001b0: ce58 cad4 3ecf f5bf edf6 ab23 d115 c4bf
000001c0: 0313 7a5c e1db 02c0 074c 1b6c f40d c23f
000001d0: b4cb c42e fed6 9ebf fc29 bf07 d6b2 e3bf
000001e0: 1cd3 35d5 ef19 683f 9bc7 8720 ef08 f3bf
000001f0: 9a26 8da6 7dc9 e63f 7af1 62d6 f9b5 f4bf
00000200: 2ebd 31b5 f85e a43f 4a52 f6a4 d524 dbbf
00000210: c9e9 d28f c0f3 e0bf f998 f9c6 be42 edbf
00000220: 05e5 a289 c23b e1bf 74dc a621 f73b e13f
00000230: be15 d18f 2341 eb3f ac6c 96e6 e240 fdbf
00000240: 1d82 1922 aaff f6bf 4bbe cbf1 9ba4 e5bf
00000250: bc61 2521 9079 f8bf 71a6 06e7 3213 f83f
00000260: 217b 5ddd 0bfa f8bf 74d9 8ca4 e123 b3bf
00000270: e311 b003 a38f 00c0 c6e6 0999 96fe f0bf
00000280: 9c0c 26e1 eb16 fcbf e53b a8c2 30d8 e6bf
00000290: d172 3b43 fd86 f1bf 2434 1cd1 6679 ca3f
000002a0: 1063 1b8d 36e3 f0bf 8502 693d 1f28 e93f
000002b0: b07d c33a 426b cbbf c6f6 4d34 f326 f8bf
000002c0: cf28 3706 574a c23f afc5 0d61 e647 fbbf
000002d0: 006d 68a6 d413 fabf 9b9e b021 42d0 e43f
000002e0: 7909 a60a 2b96 efbf 6cba 9d6d 8146 e0bf
000002f0: c178 4579 a172 e7bf a5eb 1f65 8e31 e3bf
00000300: 18c1 6b5d 259e e33f efbb 3798 1b8b f0bf
00000310: 26a1 d3b8 d012 f7bf 04d9 2e9c a862 da3f
-0.2459053397405078 -0.8670069375660827 -0.9781753018828921 -0.5160199632401724 -1.1924251015565752 -0.6197021165456071 -0.7882697722681543 -0.3678487680434648
0.784423006384498 -2.0935023881547155 -0.09019206933615831 0.09997090541264957 -1.0547975075425267 -1.428732378578803 -0.201636995308569 -2.7271341473732345
-0.5489944403002355 -1.656084155510407 -1.4252390997115112 -0.6854783968907406 -0.9047078758238164 -0.8635880909698551 -0.2005615052013418 -0.18735108481784052
-0.6681141332046578 -0.44575941848459905 -0.47848849199425253 -0.9953215739836089 -1.2410562233515328 0.01208593877201928 0.0972277383988278 -2.141444793553518
-0.01885029894605513 -0.7684226231807415 -0.8226280253250503 -1.2374240650268338 0.017956901373508232 -1.562960338955888 0.34608534915343225 2.8883519581881654
-0.5117331145290935 0.605844372936038 2.0612888175174273 -0.974258687800862 -0.8102618835980225 -0.5531159931432661 0.15561453189548355 1.0531140041672138
0.2753258312910134 -1.2709645525126048 0.30494687940825826 1.0239486771866533 -1.1197642717801721 0.31975617817662194 -1.3630970298886953 -0.15691580049308787
-2.3573634361986264 0.14105086592334734 -0.030117007832085554 -0.6155805732062727 0.0029420551524545046 -1.1896811743467655 0.7120960476833773 -1.294427716681723
0.03978707515568157 -0.42412320241536305 -0.529754906564727 -0.9143976103048593 -0.5385449112137911 0.5385699898969407 0.8517015274925865 -1.828341389401241
-1.4374181110398532 -0.6763438913894303 -1.5296784682051188 1.5046872162296518 -1.5610464713169636 -0.07476625697458933 -2.070135144053198 -1.0621553400109618
-1.7555960459583622 -0.7138904382608159 -1.0954563738115903 0.2068298836751704 -1.0554719459525508 0.7861477088373056 -0.214210776036436 -1.5095092814585072
0.14289367488374302 -1.7050536910213443 -1.6298414707478628 0.6504221590048077 -0.9870810707073324 -0.5086066380443532 -0.7327430122930069 -0.599799344548377
0.6130549263598679 -1.0339618631367065 -1.4420935840408418 0.4122716450905417
