homework3/network_data/weights_0.npy (npy, 627328 bytes, 1 tensors)

array f8 [100, 784]
-0.03470666394678721 -0.00892383831396585 0.05675239783631336 0.02988904219821011 -0.030808006465543075 0.025099840391432888 0.017712861048419733 -0.0071001810052593334
-0.033082814422526884 -0.02920032097915259 -0.02336458087344524 -0.04272381086465296 -0.03206847700537091 -0.028251936539744497 0.07132442583501203 0.03896879692409478
0.006557195881827703 0.0008817929239558835 0.006628012074099745 0.09243241721679257 0.021877025244289423 -0.013112276326236122 0.006057038716156957 -0.003630289428782617
-0.028731743545040767 -0.03215715083489404 -0.0068579686405636844 0.026279414487216136 -0.004586927439810989 -0.04956427223850615 0.010876895106732844 0.025798291017243125
-0.01559792006102472 0.06839739349538093 -0.009609580152544782 0.026675459404310996 0.0190981008856369 -0.02345644977605305 -0.019276876492123486 -0.02342599498445758
-0.05286677606900496 -0.011562394406941944 -0.044039584872425215 0.00782755216818159 0.031097849915934755 0.028675328207741716 0.12975855411297263 0.020731759897155966
0.024772439769381736 0.026001812087073646 -0.04755166178287601 0.010370161524688898 0.015741349369989287 -0.040883037425267166 0.02555272968413165 0.025940234648859455
-0.024505392728657396 -0.0032486876188814666 0.05117434388129366 -0.06257437733550227 0.013910125568425715 -0.003977314052354505 -0.09000867963167554 -0.02337740644831951
-0.060990625244121875 -0.08946887812948277 -0.1385346245298352 -0.0819350736596901 -0.046297537890851996 -0.0927167844439373 -0.07615569904056377 -0.06950767889761678
-0.04427168354705539 -0.0021845811343324164 0.06913493007798036 0.07220180709571052 0.05680064086433955 0.09744431064665814 0.012279010618576901 0.048539170268056354
0.05971043381023462 0.0413580245451322 0.022547118227338757 0.01934922195150053 -0.03516330809310377 0.017131432757488445 0.09123557144575171 -0.007372679573066534
-0.021999253559395825 -0.03199539367797122 -0.016907376677274637 -0.05705958829085459 -0.11753133455415536 -0.14593592349451098 -0.17921753387810657 -0.14071251815820662
-0.147947181160902 -0.11404175481506706 -0.0980190085865681 -0.13152086576237607 -0.18389382051793762 -0.11488545438184242 -0.02788918535173294 -0.03931778309921334
0.03994375672447727 0.08582763551610244 0.01126508348949649 0.02498978669471788 0.03394170979257988 0.10566958388693991 -0.049997991635738315 0.0013380237872688736
0.08783725237305658 -0.045905913157834495 0.05385162300291505 -0.05682017082162798 -0.008695233204212682 -0.03016550944169805 0.004376972550696997 -0.10525344006913447
-0.22222376512549208 -0.2535466725957823 -0.281177602210895 -0.20077105899680955 -0.1939785383607222 -0.13756182829049274 -0.1776821770535007 -0.19731357153506457
-0.2373679826209193 -0.2337520760636769 -0.26193021118212917 -0.052455225903979864 -0.024752320671434503 -0.07190269802982793 -0.0486491315818925 -0.01864683982489019
0.040709383809611 0.02591799079453649 0.05196566804021682 -0.009915044077134444 0.003802226403071241 0.06460848081650411 -0.06388934833823698 -0.03893252832314271
-0.037129945294123 -0.10128049210431408 -0.16850025929706838 -0.28440582770193895 -0.2500570875928254 -0.34788602100876553 -0.25361395293118544 -0.23887779741341836
-0.2707985637571655 -0.266584091463437 -0.22457010193499224 -0.25297088171270204 -0.23422655646168702 -0.22363799827009206 -0.3016971958521302 -0.2537625582490236
-0.25178242543777113 -0.1519376043546402 -0.04671014437571844 0.02393069050455979 0.0019792973252096596 0.014391530447872882 -0.009481927508295547 0.034989216099578155
0.01687614473593268 0.056827491884432736 -0.040228520845490445 -0.043057470175983464 -0.1294738941037574 -0.14948217166323763 -0.22295968380872666 -0.3088708649909854
-0.29665702666934374 -0.38238837945920134 -0.42786511609859407 -0.40048432827119923 -0.3873213036890341 -0.34996746944434026 -0.32380389344599086 -0.31740960895698234
-0.2370015547855182 -0.282369585600018 -0.23378081667296732 -0.1614588249507245 -0.2404471629241973 -0.034671941217561786 0.05510789376303033 0.05272829356826381
0.011095200853589685 0.03225230369920787 0.07294692396928382 -0.02188128243190529 0.0254812219984633 0.012610998223425455 -0.05417193797730295 -0.018498361352289803
-0.03701624884492825 -0.12070734820552081 -0.25486224059808216 -0.2750318227698567 -0.2840488487171466 -0.4034185684574338 -0.41974310325757846 -0.4349128298311746
-0.5258751658299934 -0.575954574873437 -0.47416435471301727 -0.3887766779570104 -0.2937210804269178 -0.24148494030998577 -0.08630555959488428 -0.17055911490166886
-0.2456382181987857 -0.2320568586420683 0.013256284092334475 0.0569378193251634 0.09904241764733467 0.10943693749243302 0.03565196320219634 0.008617374944994531
0.03766820170080875 -0.004077219842661046 -0.07311685076468735 0.09426857450424136 -0.017024621218466696 -0.044323856952788815 -0.09400765973324271 -0.19657356082436828
-0.26979481158490654 -0.3025786080482795 -0.3702640091682363 -0.37793889446790413 -0.438392650086561 -0.48188641137979843 -0.40758216460058244 -0.36202060470576597
-0.3110569005448755 -0.15154508521031834 -0.030081655560579384 -0.07298144526266938 -0.10617806846427984 -0.1454428110146836 0.08794998063723358 0.1739261761365403
0.13611259025704156 0.0016914972407347396 0.035107505789332645 0.062196106198859756 -0.011439397547916424 0.0072368851435225074 -0.05092009217073171 -0.0006682090117794558
00000000: fd9c 3565 12c5 a1bf 94c9 b44d a946 82bf
00000010: 6064 5a79 a60e ad3f 0514 00ab 3b9b 9e3f
00000020: e8d9 e550 228c 9fbf 05cf 76c6 c5b3 993f
00000030: 1fac affb 5123 923f 028d 6953 1415 7dbf
00000040: 6b3f 020c 3bf0 a0bf 9f7a 8d5e b0e6 9dbf
00000050: f3dc f17a e2ec 97bf 542d d934 e5df a5bf
00000060: f8f1 f087 476b a0bf 0e8e f25d 13ee 9cbf
00000070: ec0a 5e4c 5142 b23f b9f7 b4d8 b7f3 a33f
00000080: 98ca dadd b7db 7a3f 420d 97e2 03e5 4c3f
00000090: c332 8871 f925 7b3f 544e 09a1 a6a9 b73f
000000a0: 32fb d44f ee66 963f fd77 faef 9bda 8abf
000000b0: 24dd 24f3 43cf 783f e470 e4cb 44bd 6dbf
000000c0: 9033 88ab da6b 9dbf b439 56ee e676 a0bf
000000d0: 2891 73f0 1917 7cbf 5a5b 1fa7 fde8 9a3f
000000e0: 4664 7df5 bdc9 72bf 44fc a000 7d60 a9bf
000000f0: 019f 1f26 a046 863f f0d4 d800 de6a 9a3f
00000100: dbbc 6164 cdf1 8fbf ecbd 31d8 7d82 b13f
00000110: cc25 de03 30ae 83bf f339 fdc6 cf50 9b3f
00000120: 9fc9 e0da 738e 933f d174 acb2 f704 98bf
00000130: 9a2a 6948 51bd 93bf 9188 56e9 fbfc 97bf
00000140: 46cd 85a4 5a11 abbf 39eb ba4e 06ae 87bf
00000150: b151 8341 5b8c a6bf dd82 8f44 e407 803f
00000160: d89c 7561 1dd8 9f3f 11d2 6ab3 105d 9d3f
00000170: af4e 25a5 ed9b c03f 8dbb fcda b43a 953f
00000180: 6943 9b4a f25d 993f a2ef 3312 38a0 9a3f
00000190: 08b0 7400 b158 a8bf 637c d284 f33c 853f
000001a0: 23c0 f412 801e 903f e8c3 6719 9fee a4bf
000001b0: 947a 44a9 7e2a 9a3f aba2 dead 1390 9a3f
000001c0: 4781 6111 f117 99bf 6f1b 7fe2 fd9c 6abf
000001d0: 7894 ba0a 8633 aa3f 4d3a 39d8 df04 b0bf
000001e0: 6e77 3273 e97c 8c3f 3017 7e1c 844a 70bf
000001f0: c5ca 5f0f cf0a b7bf 18b1 a430 3ff0 97bf
00000200: 1b7b 92c9 293a afbf af70 93b1 6ee7 b6bf
00000210: 6b11 dca8 80bb c1bf 2883 c36d b2f9 b4bf
00000220: 8fc8 4096 4fb4 a7bf 2a1c fa84 49bc b7bf
00000230: 6a82 c89c f07e b3bf 70a6 af57 41cb b1bf
00000240: e669 f231 c7aa a6bf 2c98 e010 66e5 61bf
00000250: 5a38 b2a7 d3b2 b13f 652c 3050 d17b b23f
00000260: 9ff0 ce3d f914 ad3f 079e 683f 1cf2 b83f
00000270: a6ae 45e8 bc25 893f 75a7 c049 20da a83f
00000280: eacd e3b0 5d92 ae3f a76f b205 e12c a53f
00000290: 5632 9f7d 9716 973f b45f f04d 48d0 933f
000002a0: 03e0 8ed4 ec00 a2bf eb48 b5fd e68a 913f
000002b0: 5b64 97e3 365b b73f 8340 679a d032 7ebf
000002c0: 06cb 4bea f886 96bf 7066 f042 b361 a0bf
000002d0: ab68 8fd7 2a50 91bf d5cf 4313 ea36 adbf
000002e0: 3353 2a96 8816 bebf c738 5c41 07ae c2bf
000002f0: a028 70a3 99f0 c6bf 7c4b d027 de02 c2bf
00000300: 0c8c 4fe8 eeef c2bf 5825 4f27 d731 bdbf
00000310: d901 4414 c617 b9bf 0f73 98fc acd5 c0bf
00000320: 06d0 872c d589 c7bf 3a2a 5b15 2269 bdbf
00000330: cab8 fd8b fb8e 9cbf 66eb 1fe1 7521 a4bf
00000340: b23c 9f11 8273 a43f 9b79 a2c7 ccf8 b53f
00000350: f68c 64e9 2512 873f e8ef 5932 ec96 993f
00000360: 8814 0fcb ce60 a13f 1ff1 f96e 290d bb3f
00000370: 08e2 e135 5699 a9bf d6f3 151a 14ec 553f
00000380: 1d12 508e 807c b63f b96d 69d7 fa80 a7bf
00000390: 15a1 449f 7092 ab3f 7632 dd8e 8817 adbf
000003a0: e60b f271 cece 81bf 21bc 1312 b5e3 9ebf
000003b0: e329 5f9f 96ed 713f 0d70 e3b2 e3f1 babf
000003c0: 16d2 cd0d d471 ccbf 89be b3d2 1b3a d0bf
000003d0: 7143 7757 d0fe d1bf 5bf2 2fb6 ddb2 c9bf
000003e0: b04d 31eb 49d4 c8bf dac2 d740 a09b c1bf
000003f0: 6270 c321 4abe c6bf 5468 6634 9241 c9bf
00000400: 54b7 3cf5 1262 cebf 7965 0889 96eb cdbf
00000410: c124 b7ee 76c3 d0bf dd15 864f 69db aabf
00000420: ddba 221f ac58 99bf 2643 8818 3768 b2bf
00000430: a9fd 3efa 89e8 a8bf 32f9 e23c 2818 93bf
00000440: d386 3440 dcd7 a43f 9fbc 5ceb 3e8a 9a3f
00000450: 6cbb 7e79 3e9b aa3f 5dc4 65b0 564e 84bf
00000460: cea3 b3c1 d825 6f3f 5cb0 2670 2e8a b03f
00000470: 3eec ac65 0d5b b0bf 1907 ccdf f6ee a3bf
00000480: 6826 7b39 b202 a3bf 9691 4fb1 84ed b9bf
00000490: e932 869f 6a91 c5bf 8762 3180 b433 d2bf
000004a0: 4007 5671 ef00 d0bf 44f7 bdba c343 d6bf
000004b0: b584 6904 363b d0bf 5ec9 d033 8c93 cebf
000004c0: d002 c97f c354 d1bf 9409 9eb8 b60f d1bf
000004d0: cb2e bc8d b6be ccbf 3bf7 f2c7 ac30 d0bf
000004e0: 41c7 edc3 22fb cdbf f241 5b80 2ba0 ccbf
000004f0: 24b5 5ec1 014f d3bf 1a3f 2850 a53d d0bf
00000500: 479e bd08 341d d0bf 9c2d de00 b172 c3bf
00000510: 7465 f85c 64ea a7bf 89e3 5974 4981 983f
00000520: 499b fc28 e336 603f bb6d e784 4e79 8d3f
00000530: f1cc 68c4 426b 83bf be81 b845 1bea a13f
00000540: 3ec1 e4e6 fa47 913f 658f 5036 7e18 ad3f
00000550: 20b1 cb2a d598 a4bf 6c39 82f4 a00b a6bf
00000560: 8742 6ebe 9992 c0bf 0c78 5057 3b22 c3bf
00000570: 487a 2463 f189 ccbf 73b4 f44d 8ac4 d3bf
00000580: 7f19 ebc0 6dfc d2bf 0c74 091c 0d79 d8bf
00000590: 7988 2f5e 2462 dbbf a10f 1f05 89a1 d9bf
000005a0: f3dc 184b dfc9 d8bf 3959 fbf4 dd65 d6bf
000005b0: 81c0 2af7 33b9 d4bf 4202 7a64 7050 d4bf
000005c0: 80d5 7323 1156 cebf aa60 e2e1 5712 d2bf
000005d0: cf72 05a1 87ec cdbf 882f 68ca aeaa c4bf
000005e0: df73 96fe f8c6 cebf e08c 3c4b 85c0 a1bf
000005f0: 8964 ed12 1a37 ac3f 602f e6f0 33ff aa3f
00000600: a841 78a6 14b9 863f 14af 37bb 5f83 a03f
00000610: 28b8 ca4c a6ac b23f 501f c201 0c68 96bf
00000620: 0d02 95dc bf17 9a3f 6f26 8487 cbd3 893f
00000630: e668 f29b 6cbc abbf 4994 2604 3cf1 92bf
00000640: 0d4c 6b34 cbf3 a2bf 04fa ed40 ade6 bebf
00000650: b2a8 16b7 a94f d0bf acf8 0913 1f9a d1bf
00000660: df38 ed38 db2d d2bf 97ec 871d 9cd1 d9bf
00000670: 589f 4d2d 12dd dabf d715 2f9f 9cd5 dbbf
00000680: b896 e027 f8d3 e0bf 0f04 e249 386e e2bf
00000690: 71f7 1a73 b558 debf ed76 5193 b7e1 d8bf
000006a0: da14 a580 53cc d2bf b3cf 8d80 fae8 cebf
000006b0: 304a ec03 1f18 b6bf acc8 448e e1d4 c5bf
000006c0: 1fdf e7b8 1271 cfbf 1510 5705 0ab4 cdbf
000006d0: 7dfd 2455 1c26 8b3f d073 d02f f426 ad3f
000006e0: 974a b608 d85a b93f 1a20 8123 0f04 bc3f
000006f0: c2b6 fb5f f940 a23f 9c6a 877c fca5 813f
00000700: dfe6 ce1c 3f49 a33f e113 205e 46b3 70bf
00000710: e222 d232 c9b7 b2bf 1448 893c fc21 b83f
00000720: 9dbe 70fd e66e 91bf 5cf1 16d8 9db1 a6bf
00000730: c4b5 20d0 e210 b8bf e4dc 7f8b 5229 c9bf
00000740: 59cf 1875 5144 d1bf 0c57 82aa 725d d3bf
00000750: dcdb 90d0 67b2 d7bf 1911 e89d 2630 d8bf
00000760: 616d bb0b a00e dcbf 97d5 501a 3ad7 debf
00000770: ed1c d980 d315 dabf 451f 6c78 582b d7bf
00000780: 6b43 c233 5be8 d3bf 5e86 6c50 d465 c3bf
00000790: 3b70 5ebb b9cd 9ebf e133 9e78 e9ae b2bf
000007a0: 9b45 9b63 7c2e bbbf 3489 5fba de9d c2bf
000007b0: f84f 85d2 e383 b63f 115f 3683 3643 c63f
000007c0: eb29 dd29 236c c13f c87c 2255 a7b6 5b3f
000007d0: 412b 6b6a 9cf9 a13f 1313 2004 2bd8 af3f
000007e0: b07d d5f2 896d 87bf 0beb 4290 6ca4 7d3f
000007f0: 544a 2ac5 3212 aabf 843c 1eed 57e5 45bf
