homework3/network_data/weights_1.npy (npy, 8128 bytes, 1 tensors)

array f8 [10, 100]
0	0x3fd5f73459d673fc	0.3432131650277481
1	0x3fc38cb1dbacf53d	0.1527311632761811
2	0xbfe291755fa22806	-0.5802561633911416
3	0x3fc4097d0e2b18e0	0.15653956596197016
4	0x3fd329fbaa6ff6d9	0.29943744320176574
5	0xbfe1595460bf59bb	-0.5421544923399816
6	0x3fd965d7629e48dc	0.3968409026212052
7	0xbfd6b84ca92f3369	-0.3549987461272424
8	0x3fe82e83bfedf3cb	0.7556780575392791
9	0xbfe72f6befb8d266	-0.7245387727803745
10	0xbfd949ef177b6133	-0.39513757031592717
11	0xbfcbca7a39cb6bca	-0.2171166212272893
12	0xbfa465ee582cbbae	-0.03984017206527511
13	0xbfcee8895896ac17	-0.24147145104993292
14	0xbfe56962b36abe7e	-0.6691144470441512
15	0x3fe3d595ba13a062	0.6198223718938716
16	0xbfbf9ceb73128e7f	-0.12348815497767339
17	0x3fd64d5f0651c02c	0.3484723626816073
18	0xbfa2ef0a6170dbc3	-0.03697998465980092
19	0x3fe1f1fa52a655ff	0.5607883085492061
20	0x3fe8deacc92d532b	0.7771820000876678
21	0xbfd091cf0d8262f3	-0.2588994628836609
22	0x3fdc36da1215c90f	0.44084789053080525
23	0x3fe294aef8809e5c	0.5806498387873478
24	0xbfe138265d177fec	-0.5381042307089934
25	0xbff2c7a2edfea7ea	-1.1737393662137898
26	0x3fc8b4194c0ca966	0.19299617970802813
27	0x3ff56854f963785f	1.3379716626873444
28	0xbfc9e2ed185c67f0	-0.20223773660182998
29	0xbff57330c87cf1cb	-1.340622695118429
30	0xbff215c61461e319	-1.1303158565698992
31	0xbfc14d5f901406b0	-0.135173745489785
32	0x3fd05a003bb5315d	0.25549321966970756
33	0xbff2b5f7f94c6bf4	-1.1694259393905186
34	0xbfe483fa1c90be83	-0.6411104734342675
35	0xbfcca5cda4a2c6e4	-0.22380991495952351
36	0x3fe841f7777478c1	0.758052571592792
37	0xbfe676caf4ffa420	-0.7020010743264073
38	0xbfd65b8f8e905c35	-0.3493384258485464
39	0xbfa1308e6f2c94ee	-0.03357358080965321
40	0xbfe50c508707eeb7	-0.6577532422374678
41	0x3fe33156165a4356	0.5997724949430487
42	0x3fe8bf86d570a285	0.7733797234296423
43	0xbfe61986e1cd1ba1	-0.6906160745792144
44	0xbfca6a83e41f9cd0	-0.20637558592645755
45	0xbfcc8f043cc0b8ee	-0.2231145187992704
46	0x3fe1a5725ab2d33e	0.5514461299377229
47	0xbf9834bab541ac38	-0.02363864642431343
48	0x3fe7c541bc4c7ae0	0.7428291967115364
49	0x3f940179ec583a69	0.019536881494838818
50	0xbfe2c4ef113ade3a	-0.5865397774240997
51	0xbfe200b59a9aca03	-0.5625865954992267
52	0x3fdeabbc1bdb09f8	0.47923186035418963
53	0x3fb892329bd3ba7e	0.09598079971667947
54	0x3fe169fb932b3c61	0.5441873430626282
55	0xbfdb683afaa5bcf0	-0.428236717961183
56	0x3fe3ace9cfeb132e	0.6148575840858024
57	0x3fa27945cc6c27ad	0.036081486896434846
58	0x3fe9024091d3c426	0.7815249298274736
59	0xbfd4ebcb9b8d954b	-0.3268918055603833
60	0x3fe032590856a8ed	0.5061459696637748
61	0xbfe71c62611e7031	-0.7222148796895508
62	0x3fe61fe476170702	0.6913931185192441
63	0x3fb1d2d5b65f92be	0.06962333395456263
64	0x3fd800db2cd9be50	0.37505225543916243
65	0x3fe15c497ec83e2c	0.5425155140127962
66	0x3fd63a52ce989d58	0.34730978179364547
67	0xbfd512675654f7ab	-0.32924827032899867
68	0xbfe434bc6ad1deac	-0.6314375006031319
69	0xbfe826350bffb0f1	-0.7546639665938796
70	0x3fc281012d259f63	0.1445619078106076
71	0x3fe463c9735481f4	0.6371810200253649
72	0xbfe35f216f774832	-0.6053626229352231
73	0xbff38c40faabba8b	-1.2217416564778059
74	0xbfe068dd76906f83	-0.5128009143549977
75	0xbfd1b5a355b3cbd4	-0.2767113053261572
76	0xbfe7d2b5b1f1f1a4	-0.7444714045991998
77	0xbfc5a018a60173a2	-0.16894825082536352
78	0x3fd416d9a24ac58f	0.31389466141544003
79	0xbfc2fcec10413f77	-0.14834357064909984
80	0xbfd862bf2220a65d	-0.3810270150448554
81	0xbfe0385d00eae868	-0.5068802850648924
82	0x3fe6878544c2396b	0.7040430396025789
83	0x3fee51696156f4b2	0.9474379445233778
84	0x3ff41571ff45ee57	1.2552356692894102
85	0xbfda515476b443a9	-0.41121398536875603
86	0xbff75c5d4d4841ef	-1.4600499171102646
87	0x3fc6f6807b3cc793	0.17939764039470826
88	0xbfee8f5825c1f024	-0.9549980866863774
89	0xbfd998e065982b0f	-0.39995584412888346
90	0xbfd22dca13fc81fb	-0.2840447611979752
91	0xbfe7e4d205a2b220	-0.7466821775502162
92	0x3fe06d8ab11498d0	0.5133717974283858
93	0xbff1614a7c9a99ae	-1.0862526767101417
94	0x3fca2b1a056cd88d	0.2044403578271993
95	0x3fdfee10fdb5e4e2	0.4989054181711038
96	0xbfca6443a53f7fd0	-0.2061848217845168
97	0xbfbd5fa540fbf4ce	-0.11474068485763952
98	0xbfe6ace0aa6b9c17	-0.7086032227060767
99	0xbfcdcd6d23d25223	-0.23283161400890248
100	0xbf85a87529361628	-0.010575213737648317
101	0x3fdd7fb43b051927	0.4609194351545675
102	0x3fe015103eb0b806	0.5025712227268293
103	0xbfca4455e24ab838	-0.20521043347747692
104	0xbff0007de7b55803	-1.0001200724705093
105	0x3fe9d6083b4d0166	0.8073769720286179
106	0xbfe5cd389bdfbfa5	-0.6813014072813429
107	0xbfbca8308ffd8370	-0.11194137111080038
108	0xbfe507e47e0fc2da	-0.6572134458675365
109	0x3fc8bff86d952e42	0.193358472354122
110	0xbfc16f5498f4bbd5	-0.13621003597788098
111	0xbfbef2420f2701cd	-0.12088406438761652
112	0xbfe4e31c41214fb8	-0.6527234336922367
113	0xbfd5a26065e330b5	-0.33803567838618714
114	0xbfe8173e263fe9ec	-0.752837252336858
115	0x3fba02256e3ef2de	0.101595248618604
116	0x3fe87404f8726d96	0.7641625263672036
117	0xbfdf1236acd2d9bf	-0.4854866683703242
118	0xbfe61e04d83f304f	-0.6911644195147434
119	0xbfd7d0c488d4d552	-0.372117169975657
120	0xbfe19e5cb9c7a1e0	-0.5505813244354236
121	0xbfe345b47b72f038	-0.6022589121926165
122	0x3fb5f7697e710004	0.08580645882557297
123	0x3fbb4ab887695f34	0.10660889917323574
124	0x3fb0694791d5405a	0.06410643873573588
125	0x3f6f4bafb5252854	0.0038202697552707585
126	0xbfc214de02dfa4e1	-0.14126181736290902
127	0x3fd519d3c01e121c	0.32970136414977147
128	0x3ff07d2ecc7fc827	1.0305622089622462
129	0x3ff016e25ffef626	1.0055869817582646
130	0xbfe30801a5a1c721	-0.5947273478506966
131	0x3feebf856eb05aec	0.9608790552036601
132	0xbff13e08b7dcbd48	-1.0776450330848366
133	0x3fe6463e56bbe49e	0.6960746473333932
134	0xbfc575f00570bab8	-0.16766166940347715
135	0x3ff0a749d1717028	1.0408418828365118
136	0xbff07a06ed7a9e47	-1.0297917629740299
137	0xbfb18e23111dcd44	-0.06857508819466768
138	0xbfec6eb7dd18f49e	-0.8885154074011046
139	0xbf642c6376a93294	-0.002462572350202594
140	0xbfba6b9fc790b8fd	-0.10320471403312932
141	0xbfe1dc656a8600e0	-0.5581538277183675
142	0xbfdc3face5372948	-0.44138643631290053
143	0xbfe0097e21730d12	-0.5011587765988301
144	0x3ff03a794cda1192	1.0142758371376641
145	0x3ff28ebce9547598	1.1598481287431692
146	0xbfc7443ed22ff353	-0.1817701841645439
147	0xbfa5d3b95e1488aa	-0.042630951628113437
148	0x3fe05e11a0ddbc85	0.511483015243258
149	0x3fea49831fe79f25	0.8214736579074936
150	0x3fed11fba4de39a2	0.9084451885299141
151	0x3ff2b0a922c461ef	1.168130050477085
152	0xbfd7e7cfad94c3f3	-0.3735236353996349
153	0x3ff93f79ab1233cd	1.5779968912568052
154	0x3fe428b341678ab4	0.6299682881766189
155	0x3ff24551b4494ac1	1.1419236223634217
156	0xbfddc1096cb0eda7	-0.4649070321499615
157	0xbfd1f2809bea24c1	-0.2804261705974334
158	0x3ff0fdc97f08fafc	1.0619597399051477
159	0x3f9ed5f276e95ee7	0.03011301852015338
160	0x3fe836744654ba7c	0.7566472409869927
161	0xbfa8eb7fd329a104	-0.048671717192350555
162	0x3fa7a9828b6d4bce	0.0462151332091235
163	0x3fe5d5472bf9603c	0.6822849139089224
164	0x3ff2a7fef9cca1ef	1.166014648226447
165	0xbfe02e1244a7ea6f	-0.5056239453254657
166	0xbfa1595b6b8b8236	-0.03388486564449915
167	0x3ff03c0228582c45	1.0146504951433297
168	0x3fcd3d28dd9b644d	0.22842894383100756
169	0x3fed0fe3cd2fbda4	0.9081896789120276
170	0xbfe275ee22b6e963	-0.576895778466945
171	0x3fa2b93fec7f1fbb	0.036569593066416904
172	0x3fd0c14c02da321b	0.2617979076246983
173	0x3fe31f1efbfe1d96	0.5975489541751127
174	0xbfd1db7c72a04741	-0.2790213698764213
175	0xbfb7a5ea332636ed	-0.0923754095913087
176	0x3fe32463607a39a3	0.5981919178319014
177	0x3fdab888e345fed8	0.41751310534162434
178	0xbfeb84fe6e50c324	-0.8599846033667728
179	0xbfc8f2344255b560	-0.19489148367885445
180	0x3fd4c2d00c0b0099	0.3243904225928503
181	0x3fa7cc31931b1063	0.04647974892353159
182	0x3fcb4c49a47c227e	0.2132656148098881
183	0xbff5ee5bec566f60	-1.370693133539099
184	0x3fe886edb702fd17	0.7664707731673016
185	0xbfd3e3d09d6b21a0	-0.3107797181405889
186	0x3fe7841c5166724c	0.734876784310083
187	0x3fe2ae3f4b6a5e36	0.5837704155882821
188	0x3fe6311d0115643a	0.6934952756083768
189	0x3fb812940818e3ee	0.09403348157583455
190	0x3fc4860afeaa403f	0.16034066614929718
191	0x3fe0fe19d086825f	0.5310181687128298
192	0x3fe7bd33f913173d	0.7418460716951142
193	0x3fcc08975d6573ac	0.21901218471876172
194	0x3fed7b2c34329eb7	0.9212857264983175
195	0x3ff33b0a82680a93	1.2019143194199031
196	0xbfb83251b5da4bb7	-0.09451780977023715
197	0x3ff2531229b99818	1.1452809934503474
198	0x3fd92428dc499432	0.3928320075268089
199	0x3f929dfec7998ff7	0.018180828983886923
200	0x3fc268124895aa2d	0.1438010076920632
201	0x3ff04f35a05368c8	1.0193382513739824
202	0xbfdb1fbd9ddcd2d9	-0.4238122979761961
203	0x3ff1c414ae9d388d	1.1103712864747053
204	0xbfd97e27a5563fdc	-0.39832488199408345
205	0xbfcbc6ee2302df89	-0.21700836858303443
206	0xbfe3119dc894ef58	-0.595900432359012
207	0xbfe1f8580e132693	-0.5615654253862935
208	0xbfc6eaafd7dbc27b	-0.1790370754238387
209	0xbfe57788386d3db1	-0.6708413221439767
210	0xbfb015d2390bb91d	-0.06283296482772412
211	0x3fc88111ea6638ee	0.19143890328673002
212	0xbfc61bec8531db7d	-0.17272717002535024
213	0x3fe1912a19c7ea6a	0.5489702704938513
214	0x3fc46eb96682f89a	0.15962903504800324
215	0x3fe4c214329a24bf	0.6486912716219634
216	0xbfdf2e6d7ea9a304	-0.4872087227764015
217	0x3fda45351a3e18db	0.4104740864062372
218	0x3fbfb26bdb04e16e	0.12381624314446579
219	0xbfe11c846551c79c	-0.5347310999770687
220	0x3fced8256d2604f8	0.2409712584449506
221	0x3fc1951f6f44c1cc	0.13736336644207225
222	0x3fda55dab3c163c2	0.41149013094178255
223	0x3fdb7fff9dbfc65e	0.42968740849673803
224	0xbfe14a58d1ca1449	-0.540325555558078
225	0xbfecd64694149f4e	-0.9011567012976032
226	0x3f905ae35b8f1dae	0.015971710646935193
227	0xbfe3033791e85c69	-0.5941427087553964
228	0xbfdcdb9d913d5fd2	-0.45090426620072066
229	0xbff11182d1aa9ad7	-1.0667751493544324
230	0xbfd8ba931ba8c7aa	-0.3863876123533553
231	0xbfe06f2d91d770e2	-0.513571534010705
232	0xbfcf36f645ef4eca	-0.2438648072699066
233	0x3fcac9b6db4c91a7	0.20928083141292328
234	0xbfe37aac592c5cda	-0.6087247602144104
235	0x3fcf8a5e65527b40	0.24641017863629067
236	0xbfdee9a7ea17f13f	-0.48301122532554425
237	0xbfe5eae09ced1d6d	-0.6849215569463191
238	0xbfc29e146b2ede88	-0.14544921144055345
239	0xbf84e118d6a25464	-0.010194963502991601
240	0x3fd3e984faadceb4	0.3111278961216428
241	0xbfdd1c0c7a296cb3	-0.45483695917000516
242	0xbfd98aee38ed57f7	-0.3991046482018414
243	0xbfde6eb83b574d6c	-0.475507791471691
244	0xbfeaf36de2390166	-0.8422154825603172
245	0xbfe4ce42f52853b7	-0.6501784122689206
246	0xbfbc06185773a98f	-0.10946800360730989
247	0xbfc329cf487f6d24	-0.14971343078546184
248	0xbfbf44f67ecdabba	-0.12214603992258236
249	0x3fe606b6bd90d687	0.6883195593315613
250	0x3ff23ab3516cdbae	1.139331167285245
251	0x3fe0ffd1d15bcba1	0.5312279786143003
252	0x3fca53924165afbf	0.20567539399359977
253	0xbfeea1b76cc30f55	-0.9572407840973748
254	0x3fe07f34de227db9	0.5155281389779055
255	0x3f9be1d7c78f36f8	0.02722870975031008
