homework2/weights.npy (npy, 62848 bytes, 1 tensors)

array f8 [10, 784]
0.34487796136685467 0.48292972824531144 0.8142869887513934 0.8282739580878611 0.38300345086619636 0.7305179774428795 0.8869124256962433 0.49970330204631275
0.4256997563995959 0.3212530094786641 0.8957498700145522 0.7690578184876765 0.6041361037858811 0.8812101976600097 0.2561907609635369 0.7740334497070355
0.037481203350820724 0.6014756675492255 0.6564952656964039 0.1129735779310378 0.16510708396989282 0.05887859060908429 0.3163279741398687 0.5472930113565763
0.45129319809793356 0.05060585454638933 0.6067715497617886 0.5226900464874624 0.40881641803974156 0.8674958876026836 0.13651779262406372 0.054275379009089075
0.3967033888500009 0.4067826603435777 0.20745187913785157 0.8773738993051786 0.93146005927479 0.1612284252016828 0.369008808100183 0.6311926728947279
0.3525255569567084 0.8523645157127396 0.07627779590090189 0.8574320215859271 1.0413330770104472 1.1000561284177495 0.38677176473332464 0.43068680350782584
0.10189246914398276 0.8033537371518437 0.7927462770985176 0.07342002230830769 0.811637690463675 0.1367934833980997 0.7860034441319925 0.05441442686299147
0.10962656082351974 0.5098167229289167 0.782800807581934 0.5009711929832095 0.43914596362873926 0.3171002966568739 0.39481545509906 0.42773320505760826
-0.2892786150861467 -0.23533484137878646 -0.5134003671923804 -0.32393383193488945 -0.35121133800609816 -0.6239364883710365 -0.6741730836234049 -0.7720856285251673
-0.5567870597687171 -0.6466052500724491 -0.8409655170045938 -0.6269081524667138 -0.33366006491434663 -0.1449178318067167 0.541281486674744 0.6675410655484472
0.25381285773172546 0.6569273912217544 0.5677996407742787 0.20130870658397215 0.025539555573691475 0.8439101354260141 0.36485293939167396 0.018410729788930547
0.34473384469051704 0.37750641532613494 -0.5116534600235052 -0.49868279724221065 -0.3564981614571313 -1.2204007810204565 -1.1986709565690477 -0.30182117637125316
-0.6562810974413273 0.03780668316918612 -0.24171726441146024 -0.47404966551110017 -0.36377168332633814 -0.04221102729344095 -0.5539178870440771 -0.4560656197946418
-0.3394018290942151 -0.9349446188178773 -0.7696675910158151 0.017455514445529174 0.4063954502080124 0.38699217595533675 0.8982037525412421 0.396533646483354
0.5050786032478959 0.08720928419287954 0.6442757710337473 0.057973137289826115 0.8689555898675737 -0.18571983729941743 -0.5669706626187914 -0.4518961089665464
0.318746052607511 0.08855188544330217 -0.27217533012583595 0.6369264169608164 -0.5902855730382218 0.4698665538809579 -0.6131902031573108 0.6249249914380761
-0.8124787960983721 0.5456238474120394 -0.058761243745450886 0.012075226555915197 0.04899927647233615 -0.13443762581167962 -0.08552430328053262 -0.17253938286420945
-0.37374284729896645 0.05253911775731401 0.5915897219993019 0.9790593387283331 0.7454112917025292 0.9739822245531247 0.8608408570591194 0.2817872964025556
-0.027588938510590966 -0.6535036273667221 0.32455102936716373 -0.36204653162556455 0.09760778104284562 -0.27445388597338016 0.4124377786522089 -0.021197743727293772
-0.24206133168150035 0.2058634230250207 0.2942960034759783 0.02267287791735939 0.2482985196602362 0.02768386622637986 0.04706817162037724 -0.020652613588812985
-0.014066106852650528 -0.27444158523514117 -0.4514670630907176 -0.14308535380690746 -0.4294510885858205 -0.4684706538401098 0.7237023426325855 0.000524279213717227
0.7587136861896547 0.5642820331947771 0.8408971588330133 0.11791499349114543 -0.31699677547245353 -0.1666611072467037 -0.10832723029415325 -0.2752298532443046
0.6202263306582169 -0.9262304735879408 -0.02276570897606056 -0.12421438996424572 -0.12868635686974772 0.18581423077487935 0.1376794634738634 0.03535358534988886
0.1507443218726856 0.15275466315977826 0.02832678607114203 -0.02776227004078491 0.061082099549271573 0.2721831481188609 0.3064919674676164 0.022366222477139597
-1.06371363704331 -1.0937337471208934 -0.38689726170714955 -0.10561867891334342 0.266187125803932 0.383834954398248 0.31227805758110794 0.14082078376713825
-0.341792049095896 -0.10634267201419201 0.42983443566591883 -0.11096146573454324 -0.7276998594136682 0.12495165545893072 0.008556260911761981 0.1891063119501002
-0.21328760056039409 0.031077833699661328 0.22168096998687514 -0.09018169698203382 -0.1008155243318486 0.5056323185619698 -0.12195415628967665 0.6362341733839358
-0.1333618323086 -0.16035128938901388 -0.1466623251389998 0.04724983839741548 -0.29809397534645765 -0.864614662318515 -0.3275735378889394 0.42760463980390107
0.5656785297411216 0.7444830465249871 0.593817244311393 0.3051843002883907 -0.18118967047389856 -0.33387564797080216 0.3916901106902677 -0.20833427109949465
0.3322950560147656 -0.21621056605603373 0.02416139047324295 -0.26996722319088606 0.6140102395025302 -0.16924615294303214 0.35263658700564415 0.012174658760767398
0.7162520026115262 -0.11787342102728682 0.3600155540812383 -0.26467248701732216 0.17904677346530307 0.24883054927692094 0.3463324210640023 -0.1706475542397573
-0.31097182057110384 -1.4498604172669802 -0.5159700538596129 -0.040990911267708374 0.09238252880635456 0.4979058925922041 0.9548476989692871 -0.47390128010148946
00000000: 7ca2 4b03 7b12 d63f 1e1b 4517 52e8 de3f
00000010: 95db 4796 a30e ea3f f2b4 4363 3881 ea3f
00000020: e06d eee7 2083 d83f 413b c83c 6760 e73f
00000030: 3001 d92a 9661 ec3f f27e ff8e 23fb df3f
00000040: 0cb1 e930 aa3e db3f c8f4 5cc8 688f d43f
00000050: e77a a3a1 fba9 ec3f d567 6424 1f9c e83f
00000060: abfb 023d 1555 e33f fa3e 7bba df32 ec3f
00000070: 320c f8ee 6d65 d03f 910e 10cc e1c4 e83f
00000080: 4087 367d bc30 a33f 91d6 2ee6 493f e33f
00000090: e7a2 045c 0202 e53f 58a2 861e d6eb bc3f
000000a0: f48a fe9a 3a22 c53f 8080 33aa 5525 ae3f
000000b0: 2267 efaf b73e d43f 2363 23a2 6c83 e13f
000000c0: 5439 afdd fce1 dc3f 9097 86b4 02e9 a93f
000000d0: 03d8 4b2b ac6a e33f c677 f379 e0b9 e03f
000000e0: 841b 6356 0c2a da3f 6760 55bc 86c2 eb3f
000000f0: 403c 523f 6a79 c13f c0e2 a483 fbc9 ab3f
00000100: 14ae 549c 9663 d93f ce5a b023 ba08 da3f
00000110: 4c06 327e c88d ca3f d326 7c6d 7213 ec3f
00000120: b9b1 8353 85ce ed3f b4a1 b60e 22a3 c43f
00000130: 7c7a ae1e d79d d73f 88d8 f1f9 ba32 e43f
00000140: 2287 885a c78f d63f 1f3a e8f2 9146 eb3f
00000150: 882a ce0e f186 b33f b126 6847 1570 eb3f
00000160: f60b 60df 4ca9 f03f 0719 7574 d499 f13f
00000170: f8ee 225c dec0 d83f 0aa2 f861 5f90 db3f
00000180: c89d aef6 9f15 ba3f 35f8 85e5 12b5 e93f
00000190: 903e c570 2d5e e93f c08e af92 a7cb b23f
000001a0: 31c2 179b eff8 e93f d018 c0e8 7282 c13f
000001b0: 80e3 e2b1 f026 e93f 7040 9d2f 35dc ab3f
000001c0: 888d 827d 7c10 bc3f f9df fd28 6b50 e03f
000001d0: f318 7b47 b40c e93f 4e3b 43bd f407 e03f
000001e0: 7e2c fdab f71a dc3f ec5c ec0a 5f4b d43f
000001f0: bec5 e60a a844 d93f 22af c817 fb5f db3f
00000200: fe89 ce73 8a83 d2bf ec65 aabb 731f cebf
00000210: b00f 5b9b c66d e0bf a49c 8ef7 54bb d4bf
00000220: 341e ae1e 3f7a d6bf c0b5 8aa7 49f7 e3bf
00000230: 2131 406e d392 e5bf 3545 87eb ecb4 e8bf
00000240: 495d 9118 33d1 e1bf 5075 4f7e fdb0 e4bf
00000250: 9a26 1384 30e9 eabf 1517 8eaf a10f e4bf
00000260: 6c74 b2be af5a d5bf 2cc9 1be2 aa8c c2bf
00000270: 5a58 668d 2d52 e13f f58f a814 7f5c e53f
00000280: 9ec5 d048 783e d03f ea9b a497 8c05 e53f
00000290: 5ecb f926 6a2b e23f eccf 96d3 7bc4 c93f
000002a0: 4005 c68f 0a27 9a3f 7c5d 0dd4 4f01 eb3f
000002b0: 7459 a224 c059 d73f a015 5b29 43da 923f
000002c0: 8c49 318b 1e10 d63f c4c7 f6aa 1029 d83f
000002d0: 56f5 b513 775f e0bf 02eb 4e40 6bea dfbf
000002e0: 6eb8 22aa ddd0 d6bf 76ee 27f8 c286 f3bf
000002f0: c710 d298 c12d f3bf 524e 70c4 0951 d3bf
00000300: acca 4f37 4100 e5bf a053 90c7 655b a33f
00000310: a04d c360 97f0 cebf cc31 8368 d456 debf
00000320: 4a3d c606 0948 d7bf 5004 830b af9c a5bf
00000330: 6cc2 3001 b2b9 e1bf ec44 76da 2d30 ddbf
00000340: 1062 0a73 c2b8 d5bf 659b 2cfa 10eb edbf
00000350: 6887 86ed 1da1 e8bf 60af b6be dbdf 913f
00000360: 36be f80f 6202 da3f a04e e2d4 7ac4 d83f
00000370: 3ee4 c9cb 15be ec3f 6437 daa8 ce60 d93f
00000380: 857d 5b9a 9a29 e03f c017 84ff 5853 b63f
00000390: 7f3e c638 e89d e43f f0a2 69b1 a7ae ad3f
000003a0: 350b 05f4 7bce eb3f 2cb0 b5e9 aac5 c7bf
000003b0: 30a7 b7a8 9f24 e2bf aedc 4ca8 ddeb dcbf
000003c0: 2c6a ebd7 5566 d43f 2866 fa1b 56ab b63f
000003d0: 32c8 6a13 526b d1bf ecc3 5982 b361 e43f
000003e0: 37fe ef91 9ee3 e2bf b4c9 992a 4b12 de3f
000003f0: 4f39 990f 419f e3bf 6cbf 15b2 62ff e33f
00000400: 64f3 3d88 d3ff e9bf 4aad 9124 c075 e13f
00000410: f067 5128 f415 aebf 0011 3279 e5ba 883f
00000420: a0e3 f3e3 6e16 a93f 3445 1b8b 4035 c1bf
00000430: 0063 9ab5 ebe4 b5bf 283f 563f c515 c6bf
00000440: b6d4 901e 67eb d7bf c084 0e41 68e6 aa3f
00000450: 1f60 9491 4dee e23f 7acf 1540 7454 ef3f
00000460: adce fdc7 68da e73f 76e9 2ac5 dc2a ef3f
00000470: 1925 0420 028c eb3f 048b 9e95 cd08 d23f
00000480: 4091 8952 4640 9cbf 2a70 6b70 80e9 e4bf
00000490: 76f7 40ae 71c5 d43f e491 3d37 c52b d7bf
000004a0: c805 6ad3 d2fc b83f 8e02 2108 a790 d1bf
000004b0: 4c8d bc6c 6165 da3f e019 3b80 dcb4 95bf
000004c0: 5860 999f ddfb cebf d0e3 aa8e bb59 ca3f
000004d0: 0876 91e7 bed5 d23f 2021 a514 8f37 973f
000004e0: acff caf2 3ec8 cf3f c0cc 46d0 2859 9c3f
000004f0: b085 95c3 5119 a83f 4075 c36f f525 95bf
00000500: 403b 50e7 b0ce 8cbf 38d4 4f70 7390 d1bf
00000510: 0088 cc1b d6e4 dcbf a091 91f1 9e50 c2bf
00000520: ec4a 2d6b 207c dbbf ac41 5856 6cfb ddbf
00000530: 46a8 b4d0 9128 e73f 0078 d709 f92d 413f
00000540: 21ca a6ec 6147 e83f b057 c931 990e e23f
00000550: 6796 8f28 a1e8 ea3f 50a5 c050 ad2f be3f
00000560: 7add e5d7 ac49 d4bf 08e3 91b2 2655 c5bf
00000570: a830 6157 55bb bbbf 7a4c a4ac 5d9d d1bf
00000580: a771 c9e3 e4d8 e33f 30cd 1317 aea3 edbf
00000590: e0f8 16de e44f 97bf 68ca 96a6 83cc bfbf
000005a0: b435 1967 cb78 c0bf d09d 27be c2c8 c73f
000005b0: a8bc 790c 7b9f c13f 508c bf79 dd19 a23f
000005c0: e81c 4006 974b c33f 5897 4afd 768d c33f
000005d0: c0f9 1a6f b201 9d3f 8033 8d67 b66d 9cbf
000005e0: 60ca de27 2746 af3f 5a57 ecdd 726b d13f
000005f0: 9ea5 307c 909d d33f e028 4cc8 2be7 963f
00000600: 4e90 3697 f804 f1bf 00a7 26f5 ee7f f1bf
00000610: 206d 7cbb ecc2 d8bf 988f c763 d309 bbbf
00000620: 8e6c fcb9 3509 d13f a4ef 0c7c c090 d83f
00000630: d06e 241b 5dfc d33f c83f 705a 6a06 c23f
00000640: ae94 39c2 ebdf d5bf a05f 78fa 4539 bbbf
00000650: 9e4d f84a 6882 db3f d032 727a f867 bcbf
00000660: 3d89 2f37 5149 e7bf 70f4 c6e9 d4fc bf3f
00000670: 0024 56e6 f185 813f 407c a5b8 a234 c83f
00000680: 504c 8612 024d cbbf 4077 7b1d ded2 9f3f
00000690: a89d 1ec2 0a60 cc3f 6851 3ccf 2516 b7bf
000006a0: a833 efd3 0bcf b9bf 2ec7 00d4 232e e03f
000006b0: 701c e038 6338 bfbf da02 e9c4 075c e43f
000006c0: cc68 2622 0012 c1bf 2c0c e61b 6486 c4bf
000006d0: 507f 03c1 d4c5 c2bf 90fd 507d 2131 a83f
000006e0: c2d9 cfc0 f813 d3bf 779a 495e ecaa ebbf
000006f0: 1a27 1100 f7f6 d4bf e0d6 e4d9 df5d db3f
00000700: 0b33 29dc 091a e23f 5f0a 281c ced2 e73f
00000710: e9c8 8305 8d00 e33f 2871 3fbb 2388 d33f
00000720: 047a 871e 3931 c7bf 2ec9 3df7 375e d5bf
00000730: 5834 e565 7311 d93f e010 8188 b2aa cabf
00000740: 922d 8d7b 5244 d53f ec51 21af c9ac cbbf
00000750: 8044 a277 c3bd 983f c831 a69a 2447 d1bf
00000760: e051 42cd f8a5 e33f 0c9c eea1 dba9 c5bf
00000770: bafc 230c 9991 d63f 8059 bd09 07ef 883f
00000780: 0227 dd51 89eb e63f e83c 61d8 f32c bebf
00000790: 9e22 b5ad 7e0a d73f 0afc f8de 64f0 d0bf
000007a0: 2470 3e32 01eb c63f 88ee b1ef add9 cf3f
000007b0: caeb 8075 4f2a d63f 0c13 4d70 c7d7 c5bf
000007c0: 7026 d559 f6e6 d3bf 54d3 3ed6 a032 f7bf
000007d0: 4f5b 61a1 d382 e0bf 90f5 a7be c2fc a4bf
000007e0: 28f0 f1a3 61a6 b73f 42d4 4aad b0dd df3f
000007f0: 727c f7c2 1c8e ee3f 3461 e408 6654 debf
